…
tamp":1762670875251,"user":{"displayName":"Hoang Do","userId":"17128267338028437900"},"user_tz":300},"id":"WvlLKvOeWpXL","outputId":"a24ff070-19df-45a4-b9d5-3832b1217e7f"},"outputs":[{"output_type":"stream","name":"stdout","text":["Using device: cpu\n"]},{"output_type":"execute_result","data":{"text/plain":["MaxxVit(\n","  (stem): Stem(\n","    (conv1): Conv2dSame(3, 64, kernel_size=(3, 3), stride=(2, 2))\n","    (norm1): BatchNormAct2d(\n","      64, eps=0.001, momentum=0.1, affine=True, track_running_stats=True\n","      (drop): Identity()\n","      (act): GELUTanh()\n","    )\n","    (conv2): Conv2d(64, 64, kernel_size=(3, 3), stride=(1, 1), padding=(1, 1))\n","  )\n","  (stages): Sequential(\n","    (0): MaxxVitStage(\n","      (blocks): Sequential(\n","        (0): MaxxVitBlock(\n","          (conv): MbConvBlock(\n","            (shortcut): Downsample2d(\n","              (pool): AvgPool2dSame(kernel_size=(2, 2), stride=(2, 2), padding=(0, 0))\n","              (expand): Identity()\n","            )\n","            (pre_norm): BatchNormAct2d(\n","              64, eps=0.001, momentum=0.1, affine=True, track_running_stats=True\n","              (drop): Identity()\n","              (act): Identity()\n","            )\n","            (down): Identity()\n","            (conv1_1x1): Conv2d(64, 256, kernel_size=(1, 1), stride=(1, 1), bias=False)\n","            (norm1): BatchNormAct2d(\n","              256, eps=0.001, momentum=0.1, affine=True, track_running_stats=True\n","              (drop): Identity()\n","              (act): GELUTanh()\n","            )\n","            (conv2_kxk): Conv2dSame(256, 256, kernel_size=(3, 3), stride=(2, 2), groups=256, bias=False)\n","            (norm2): BatchNormAct2d(\n","              256, eps=0.001, momentum=0.1, affine=True, track_running_stats=True\n","              (drop): Identity()\n","              (act): GELUTanh()\n","            )\n","            (se): SEModule(\n","              (fc1): Conv2d(256, 16, kernel_size=(1, 1), stride=(1, 1))\n","              (bn): Identity()\n","              (act): SiLU(inplace=True)\n","              (fc2): Conv2d(16, 256, kernel_size=(1, 1), stride=(1, 1))\n","              (gate): Sigmoid()\n","            )\n","            (conv3_1x1): Conv2d(256, 64, kernel_size=(1, 1), stride=(1, 1))\n","            (drop_path): Identity()\n","          )\n","          (attn_block): PartitionAttentionCl(\n","            (norm1): LayerNorm((64,), eps=1e-05, elementwise_affine=True)\n","            (attn): AttentionCl(\n","              (qkv): Linear(in_features=64, out_features=192, bias=True)\n","              (rel_pos): RelPosBiasTf()\n","              (attn_drop): Dropout(p=0.0, inplace=False)\n","              (proj): Linear(in_features=64, out_features=64, bias=True)\n","              (proj_drop): Dropout(p=0.0, inplace=False)\n","            )\n","            (ls1): Identity()\n","            (drop_path1): Identity()\n","            (norm2): LayerNorm((64,), eps=1e-05, elementwise_affine=True)\n","            (mlp): Mlp(\n","              (fc1): Linear(in_features=64, out_features=256, bias=True)\n","              (act): GELUTanh()\n","              (drop1): Dropout(p=0.0, inplace=False)\n","              (norm): Identity()\n","              (fc2): Linear(in_features=256, out_features=64, bias=True)\n","              (drop2): Dropout(p=0.0, inplace=False)\n","            )\n","            (ls2): Identity()\n","            (drop_path2): Identity()\n","          )\n","          (attn_grid): PartitionAttentionCl(\n","            (norm1): LayerNorm((64,), eps=1e-05, elementwise_affine=True)\n","            (attn): AttentionCl(\n","              (qkv): Linear(in_features=64, out_features=192, bias=True)\n","              (rel_pos): RelPosBiasTf()\n","              (attn_drop): Dropout(p=0.0, inplace=False)\n","              (proj): Linear(in_features=64, out_features=64, bias=True)\n","              (proj_drop): Dropout(p=0.0, inplace=False)\n","            )\n","            (ls1): Identity()\n","            (drop_path1): Identity()\n","            (norm2): LayerNorm((64,), eps=1e-05, elementwise_affine=True)\n","            (mlp): Mlp(\n","              (fc1): Linear(in_features=64, out_features=256, bias=True)\n","              (act): GELUTanh()\n","              (drop1): Dropout(p=0.0, inplace=False)\n","              (norm): Identity()\n","              (fc2): Linear(in_features=256, out_features=64, bias=True)\n","              (drop2): Dropout(p=0.0, inplace=False)\n","            )\n","            (ls2): Identity()\n","            (drop_path2): Identity()\n","          )\n","        )\n","        (1): MaxxVitBlock(\n","          (conv): MbConvBlock(\n","            (shortcut): Identity()\n","            (pre_norm): BatchNormAct2d(\n","              64, eps=0.001, momentum=0.1, affine=True, track_running_stats=True\n","              (drop): Identity()\n","              (act): Identity()\n","            )\n","            (down): Identity()\n","            (conv1_1x1): Conv2d(64, 256, kernel_size=(1, 1), stride=(1, 1), bias=False)\n","            (norm1): BatchNormAct2d(\n","              256, eps=0.001, momentum=0.1, affine=True, track_running_stats=True\n","              (drop): Identity()\n","              (act): GELUTanh()\n","            )\n","            (conv2_kxk): Conv2d(256, 256, kernel_size=(3, 3), stride=(1, 1), padding=(1, 1), groups=256, bias=False)\n","            (norm2): BatchNormAct2d(\n","              256, eps=0.001, momentum=0.1, affine=True, track_running_stats=True\n","              (drop): Identity()\n","              (act): GELUTanh()\n","            )\n","            (se): SEModule(\n","              (fc1): Conv2d(256, 16, kernel_size=(1, 1), stride=(1, 1))\n","              (bn): Identity()\n","              (act): SiLU(inplace=True)\n","              (fc2): Conv2d(16, 256, kernel_size=(1, 1), stride=(1, 1))\n","              (gate): Sigmoid()\n","            )\n","            (conv3_1x1): Conv2d(256, 64, kernel_size=(1, 1), stride=(1, 1))\n","            (drop_path): Identity()\n","          )\n","          (attn_block): PartitionAttentionCl(\n","            (norm1): LayerNorm((64,), eps=1e-05, elementwise_affine=True)\n","            (attn): AttentionCl(\n","              (qkv): Linear(in_features=64, out_features=192, bias=True)\n","              (rel_pos): RelPosBiasTf()\n","              (attn_drop): Dropout(p=0.0, inplace=False)\n","              (proj): Linear(in_features=64, out_features=64, bias=True)\n","              (proj_drop): Dropout(p=0.0, inplace=False)\n","            )\n","            (ls1): Identity()\n","            (drop_path1): Identity()\n","            (norm2): LayerNorm((64,), eps=1e-05, elementwise_affine=True)\n","            (mlp): Mlp(\n","              (fc1): Linear(in_features=64, out_features=256, bias=True)\n","              (act): GELUTanh()\n","              (drop1): Dropout(p=0.0, inplace=False)\n","              (norm): Identity()\n","              (fc2): Linear(in_features=256, out_features=64, bias=True)\n","              (drop2): Dropout(p=0.0, inplace=False)\n","            )\n","            (ls2): Identity()\n","            (drop_path2): Identity()\n","          )\n","          (attn_grid): PartitionAttentionCl(\n","            (norm1): LayerNorm((64,), eps=1e-05, elementwise_affine=True)\n","            (attn): AttentionCl(\n","              (qkv): Linear(in_features=64, out_features=192, bias=True)\n","              (rel_pos): RelPosBiasTf()\n","              (attn_drop): Dropout(p=0.0, inplace=False)\n","              (proj): Linear(in_features=64, out_features=64, bias=True)\n","              (proj_drop): Dropout(p=0.0, inplace=False)\n","            )\n","            (ls1): Identity()\n","            (drop_path1): Identity()\n","            (norm2): LayerNorm((64,), eps=1e-05, elementwise_affine=True)\n","            (mlp): Mlp(\n","              (fc1): Linear(in_features=64, out_features=256, bias=True)\n","              (act): GELUTanh()\n","              (drop1): Dropout(p=0.0, inplace=False)\n","              (norm): Identity()\n","              (fc2): Linear(in_features=256, out_features=64, bias=True)\n","              (drop2): Dropout(p=0.0, inplace=False)\n","            )\n","            (ls2): Identity()\n","            (drop_path2): Identity()\n","          )\n","        )\n","      )\n","    )\n","    (1): MaxxVitStage(\n","      (blocks): Sequential(\n","        (0): MaxxVitBlock(\n","          (conv): MbConvBlock(\n","            (shortcut): Downsample2d(\n","              (pool): AvgPool2dSame(kernel_size=(2, 2), stride=(2, 2), padding=(0, 0))\n","              (expand): Conv2d(64, 128, kernel_size=(1, 1), stride=(1, 1))\n","            )\n","            (pre_norm): BatchNormAct2d(\n","              64, eps=0.001, momentum=0.1, affine=True, track_running_stats=True\n","              (drop): Identity()\n","              (act): Identity()\n","            )\n","            (down): Identity()\n","            (conv1_1x1): Conv2d(64, 512, kernel_size=(1, 1), stride=(1, 1), bias=False)\n","            (norm1): BatchNormAct2d(\n","              512, eps=0.001, momentum=0.1, affine=True, track_running_stats=True\n","              (drop): Identity()\n","              (act): GELUTanh()\n","            )\n","            (conv2_kxk): Conv2dSame(512, 512, kernel_size=(3, 3), stride=(2, 2), groups=512, bias=False)\n","            (norm2): BatchNormAct2d(\n","              512, eps=0.001, momentum=0.1, affine=True, track_running_stats=True\n","              (drop): Identity()\n","              (act): GELUTanh()\n","            )\n","            (se): SEModule(\n","              (fc1): Conv2d(512, 32, kernel_size=(1, 1), stride=(1, 1))\n","              (bn): Identity()\n","              (act): SiLU(inplace=True)\n","              (fc2): Conv2d(32, 512, kernel_size=(1, 1), stride=(1, 1))\n","              (gate): Sigmoid()\n","            )\n","            (conv3_1x1): Conv2d(512, 128, kernel_size=(1, 1), stride=(1, 1))\n","            (drop_path): Identity()\n","          )\n","          (attn_block): PartitionAttentionCl(\n","            (norm1): LayerNorm((128,), eps=1e-05, elementwise_affine=True)\n","            (attn): AttentionCl(\n","              (qkv): Linear(in_features=128, out_features=384, bias=True)\n","              (rel_pos): RelPosBiasTf()\n","              (attn_drop): Dropout(p=0.0, inplace=False)\n","              (proj): Linear(in_features=128, out_features=128, bias=True)\n","              (proj_drop): Dropout(p=0.0, inplace=False)\n","            )\n","            (ls1): Identity()\n","            (drop_path1): Identity()\n","            (norm2): LayerNorm((128,), eps=1e-05, elementwise_affine=True)\n","            (mlp): Mlp(\n","              (fc1): Linear(in_features=128, out_features=512, bias=True)\n","              (act): GELUTanh()\n","              (drop1): Dropout(p=0.0, inplace=False)\n","              (norm): Identity()\n","              (fc2): Linear(in_features=512, out_features=128, bias=True)\n","              (drop2): Dropout(p=0.0, inplace=False)\n","            )\n","            (ls2): Identity()\n","            (drop_path2): Identity()\n","          )\n","          (attn_grid): PartitionAttentionCl(\n","            (norm1): LayerNorm((128,), eps=1e-05, elementwise_affine=True)\n","            (attn): AttentionCl(\n","              (qkv): Linear(in_features=128, out_features=384, bias=True)\n","              (rel_pos): RelPosBiasTf()\n","              (attn_drop): Dropout(p=0.0, inplace=False)\n","              (proj): Linear(in_features=128, out_features=128, bias=True)\n","              (proj_drop): Dropout(p=0.0, inplace=False)\n","            )\n","            (ls1): Identity()\n","            (drop_path1): Identity()\n","            (norm2): LayerNorm((128,), eps=1e-05, elementwise_affine=True)\n","            (mlp): Mlp(\n","              (fc1): Linear(in_features=128, out_features=512, bias=True)\n","              (act): GELUTanh()\n","              (drop1): Dropout(p=0.0, inplace=False)\n","              (norm): Identity()\n","              (fc2): Linear(in_features=512, out_features=128, bias=True)\n","              (drop2): Dropout(p=0.0, inplace=False)\n","            )\n","            (ls2): Identity()\n","            (drop_path2): Identity()\n","          )\n","        )\n","        (1): MaxxVitBlock(\n","          (conv): MbConvBlock(\n","            (shortcut): Identity()\n","            (pre_norm): BatchNormAct2d(\n","              128, eps=0.001, momentum=0.1, affine=True, track_running_stats=True\n","              (drop): Identity()\n","              (act): Identity()\n","            )\n","            (down): Identity()\n","            (conv1_1x1): Conv2d(128, 512, kernel_size=(1, 1), stride=(1, 1), bias=False)\n","            (norm1): BatchNormAct2d(\n","              512, eps=0.001, momentum=0.1, affine=True, track_running_stats=True\n","              (drop): Identity()\n","              (act): GELUTanh()\n","            )\n","            (conv2_kxk): Conv2d(512, 512, kernel_size=(3, 3), stride=(1, 1), padding=(1, 1), groups=512, bias=False)\n","            (norm2): BatchNormAct2d(\n","              512, eps=0.001, momentum=0.1, affine=True, track_running_stats=True\n","              (drop): Identity()\n","              (act): GELUTanh()\n","            )\n","            (se): SEModule(\n","              (fc1): Conv2d(512, 32, kernel_size=(1, 1), stride=(1, 1))\n","              (bn): Identity()\n","              (act): SiLU(inplace=True)\n","              (fc2): Conv2d(32, 512, kernel_size=(1, 1), stride=(1, 1))\n","              (gate): Sigmoid()\n","            )\n","            (conv3_1x1): Conv2d(512, 128, kernel_size=(1, 1), stride=(1, 1))\n","            (drop_path): Identity()\n","          )\n","          (attn_block): PartitionAttentionCl(\n","            (norm1): LayerNorm((128,), eps=1e-05, elementwise_affine=True)\n","            (attn): AttentionCl(\n","              (qkv): Linear(in_features=128, out_features=384, bias=True)\n","              (rel_pos): RelPosBiasTf()\n","              (attn_drop): Dropout(p=0.0, inplace=False)\n","              (proj): Linear(in_features=128, out_features=128, bias=True)\n","              (proj_drop): Dropout(p=0.0, inplace=False)\n","            )\n","            (ls1): Identity()\n","            (drop_path1): Identity()\n","            (norm2): LayerNorm((128,), eps=1e-05, elementwise_affine=True)\n","            (mlp): Mlp(\n","              (fc1): Linear(in_features=128, out_features=512, bias=True)\n","              (act): GELUTanh()\n","              (drop1): Dropout(p=0.0, inplace=False)\n","              (norm): Identity()\n","              (fc2): Linear(in_features=512, out_features=128, bias=True)\n","              (drop2): Dropout(p=0.0, inplace=False)\n","            )\n","            (ls2): Identity()\n","            (drop_path2): Identity()\n","          )\n","          (attn_grid): PartitionAttentionCl(\n","            (norm1): LayerNorm((128,), eps=1e-05, elementwise_affine=True)\n","            (attn): AttentionCl(\n","              (qkv): Linear(in_features=128, out_features=384, bias=True)\n","              (rel_pos): RelPosBiasTf()\n","              (attn_drop): Dropout(p=0.0, inplace=False)\n","              (proj): Linear(in_features=128, out_features=128, bias=True)\n","              (proj_drop): Dropout(p=0.0, inplace=False)\n","            )\n","            (ls1): Identity()\n","            (drop_path1): Identity()\n","            (norm2): LayerNorm((128,), eps=1e-05, elementwise_affine=True)\n","            (mlp): Mlp(\n","              (fc1): Linear(in_features=128, out_features=512, bias=True)\n","              (act): GELUTanh()\n","              (drop1): Dropout(p=0.0, inplace=False)\n","              (norm): Identity()\n","              (fc2): Linear(in_features=512, out_features=128, bias=True)\n","              (drop2): Dropout(p=0.0, inplace=False)\n","            )\n","            (ls2): Identity()\n","            (drop_path2): Identity()\n","          )\n","        )\n","      )\n","    )\n","    (2): MaxxVitStage(\n","      (blocks): Sequential(\n","        (0): MaxxVitBlock(\n","          (conv): MbConvBlock(\n","            (shortcut): Downsample2d(\n","              (pool): AvgPool2dSame(kernel_size=(2, 2), stride=(2, 2), padding=(0, 0))\n","              (expand): Conv2d(128, 256, kernel_size=(1, 1), stride=(1, 1))\n","            )\n","            (pre_norm): BatchNormAct2d(\n","              128, eps=0.001, momentum=0.1, affine=True, track_running_stats=True\n","              (drop): Identity()\n","              (act): Identity()\n","            )\n","            (down): Identity()\n","            (conv1_1x1): Conv2d(128, 1024, kernel_size=(1, 1), stride=(1, 1), bias=False)\n","            (norm1): BatchNormAct2d(\n","              1024, eps=0.001, momentum=0.1, affine=True, track_running_stats=True\n","              (drop): Identity()\n","              (act): GELUTanh()\n","            )\n","            (conv2_kxk): Conv2dSame(1024, 1024, kernel_size=(3, 3), stride=(2, 2), groups=1024, bias=False)\n","            (norm2): BatchNormAct2d(\n","              1024, eps=0.001, momentum=0.1, affine=True, track_running_stats=True\n","              (drop): Identity()\n","              (act): GELUTanh()\n","            )\n","            (se): SEModule(\n","              (fc1): Conv2d(1024, 64, kernel_size=(1, 1), stride=(1, 1))\n","              (bn): Identity()\n","              (act): SiLU(inplace=True)\n","              (fc2): Conv2d(64, 1024, kernel_size=(1, 1), stride=(1, 1))\n","              (gate): Sigmoid()\n","            )\n","            (conv3_1x1): Conv2d(1024, 256, kernel_size=(1, 1), stride=(1, 1))\n","            (drop_path): Identity()\n","          )\n","          (attn_block): PartitionAttentionCl(\n","            (norm1): LayerNorm((256,), eps=1e-05, elementwise_affine=True)\n","            (attn): AttentionCl(\n","              (qkv): Linear(in_features=256, out_features=768, bias=True)\n","              (rel_pos): RelPosBiasTf()\n","              (attn_drop): Dropout(p=0.0, inplace=False)\n","              (proj): Linear(in_features=256, out_features=256, bias=True)\n","              (proj_drop): Dropout(p=0.0, inplace=False)\n","            )\n","            (ls1): Identity()\n","            (drop_path1): Identity()\n","            (norm2): LayerNorm((256,), eps=1e-05, elementwise_affine=True)\n","            (mlp): Mlp(\n","              (fc1): Linear(in_features=256, out_features=1024, bias=True)\n","              (act): GELUTanh()\n","              (drop1): Dropout(p=0.0, inplace=False)\n","              (norm): Identity()\n","              (fc2): Linear(in_features=1024, out_features=256, bias=True)\n","              (drop2): Dropout(p=0.0, inplace=False)\n","            )\n","            (ls2): Identity()\n","            (drop_path2): Identity()\n","          )\n","          (attn_grid): PartitionAttentionCl(\n","            (norm1): LayerNorm((256,), eps=1e-05, elementwise_affine=True)\n","            (attn): AttentionCl(\n","              (qkv): Linear(in_features=256, out_features=768, bias=True)\n","              (rel_pos): RelPosBiasTf()\n","              (attn_drop): Dropout(p=0.0, inplace=False)\n","              (proj): Linear(in_features=256, out_features=256, bias=True)\n","              (proj_drop): Dropout(p=0.0, inplace=False)\n","            )\n","            (ls1): Identity()\n","            (drop_path1): Identity()\n","            (norm2): LayerNorm((256,), eps=1e-05, elementwise_affine=True)\n","            (mlp): Mlp(\n","              (fc1): Linear(in_features=256, out_features=1024, bias=True)\n","              (act): GELUTanh()\n","              (drop1): Dropout(p=0.0, inplace=False)\n","              (norm): Identity()\n","              (fc2): Linear(in_features=1024, out_features=256, bias=True)\n","              (drop2): Dropout(p=0.0, inplace=False)\n","            )\n","            (ls2): Identity()\n","            (drop_path2): Identity()\n","          )\n","        )\n","        (1): MaxxVitBlock(\n","          (conv): MbConvBlock(\n","            (shortcut): Identity()\n","            (pre_norm): BatchNormAct2d(\n","              256, eps=0.001, momentum=0.1, affine=True, track_running_stats=True\n","              (drop): Identity()\n","              (act): Identity()\n","            )\n","            (down): Identity()\n","            (conv1_1x1): Conv2d(256, 1024, kernel_size=(1, 1), stride=(1, 1), bias=False)\n","            (norm1): BatchNormAct2d(\n","              1024, eps=0.001, momentum=0.1, affine=True, track_running_stats=True\n","              (drop): Identity()\n","              (act): GELUTanh()\n","            )\n","            (conv2_kxk): Conv2d(1024, 1024, kernel_size=(3, 3), stride=(1, 1), padding=(1, 1), groups=1024, bias=False)\n","            (norm2): BatchNormAct2d(\n","              1024, eps=0.001, momentum=0.1, affine=True, track_running_stats=True\n","              (drop): Identity()\n","              (act): GELUTanh()\n","            )\n","            (se): SEModule(\n","              (fc1): Conv2d(1024, 64, kernel_size=(1, 1), stride=(1, 1))\n","              (bn): Identity()\n","              (act): SiLU(inplace=True)\n","              (fc2): Conv2d(64, 1024, kernel_size=(1, 1), stride=(1, 1))\n","              (gate): Sigmoid()\n","            )\n","            (conv3_1x1): Conv2d(1024, 256, kernel_size=(1, 1), stride=(1, 1))\n","            (drop_path): Identity()\n","          )\n","          (attn_block): PartitionAttentionCl(\n","            (norm1): LayerNorm((256,), eps=1e-05, elementwise_affine=True)\n","            (attn): AttentionCl(\n","              (qkv): Linear(in_features=256, out_features=768, bias=True)\n","              (rel_pos): RelPosBiasTf()\n","              (attn_drop): Dropout(p=0.0, inplace=False)\n","              (proj): Linear(in_features=256, out_features=256, bias=True)\n","              (proj_drop): Dropout(p=0.0, inplace=False)\n","            )\n","            (ls1): Identity()\n","            (drop_path1): Identity()\n","            (norm2): LayerNorm((256,), eps=1e-05, elementwise_affine=True)\n","            (mlp): Mlp(\n","              (fc1): Linear(in_features=256, out_features=1024, bias=True)\n","              (act): GELUTanh()\n","              (drop1): Dropout(p=0.0, inplace=False)\n","              (norm): Identity()\n","              (fc2): Linear(in_features=1024, out_features=256, bias=True)\n","              (drop2): Dropout(p=0.0, inplace=False)\n","            )\n","            (ls2): Identity()\n","            (drop_path2): Identity()\n","          )\n","          (attn_grid): PartitionAttentionCl(\n","            (norm1): LayerNorm((256,), eps=1e-05, elementwise_affine=True)\n","            (attn): AttentionCl(\n","              (qkv): Linear(in_features=256, out_features=768, bias=True)\n","              (rel_pos): RelPosBiasTf()\n","              (attn_drop): Dropout(p=0.0, inplace=False)\n","              (proj): Linear(in_features=256, out_features=256, bias=True)\n","              (proj_drop): Dropout(p=0.0, inplace=False)\n","            )\n","            (ls1): Identity()\n","            (drop_path1): Identity()\n","            (norm2): LayerNorm((256,), eps=1e-05, elementwise_affine=True)\n","            (mlp): Mlp(\n","              (fc1): Linear(in_features=256, out_features=1024, bias=True)\n","              (act): GELUTanh()\n","              (drop1): Dropout(p=0.0, inplace=False)\n","              (norm): Identity()\n","              (fc2): Linear(in_features=1024, out_features=256, bias=True)\n","              (drop2): Dropout(p=0.0, inplace=False)\n","            )\n","            (ls2): Identity()\n","            (drop_path2): Identity()\n","          )\n","        )\n","        (2): MaxxVitBlock(\n","          (conv): MbConvBlock(\n","            (shortcut): Identity()\n","            (pre_norm): BatchNormAct2d(\n","              256, eps=0.001, momentum=0.1, affine=True, track_running_stats=True\n","              (drop): Identity()\n","              (act): Identity()\n","            )\n","            (down): Identity()\n","            (conv1_1x1): Conv2d(256, 1024, kernel_size=(1, 1), stride=(1, 1), bias=False)\n","            (norm1): BatchNormAct2d(\n","              1024, eps=0.001, momentum=0.1, affine=True, track_running_stats=True\n","              (drop): Identity()\n","              (act): GELUTanh()\n","            )\n","            (conv2_kxk): Conv2d(1024, 1024, kernel_size=(3, 3), stride=(1, 1), padding=(1, 1), groups=1024, bias=False)\n","            (norm2): BatchNormAct2d(\n","              1024, eps=0.001, momentum=0.1, affine=True, track_running_stats=True\n","              (drop): Identity()\n","              (act): GELUTanh()\n","            )\n","            (se): SEModule(\n","              (fc1): Conv2d(1024, 64, kernel_size=(1, 1), stride=(1, 1))\n","              (bn): Identity()\n","              (act): SiLU(inplace=True)\n","              (fc2): Conv2d(64, 1024, kernel_size=(1, 1), stride=(1, 1))\n","              (gate): Sigmoid()\n","            )\n","            (conv3_1x1): Conv2d(1024, 256, kernel_size=(1, 1), stride=(1, 1))\n","            (drop_path): Identity()\n","          )\n","          (attn_block): PartitionAttentionCl(\n","            (norm1): LayerNorm((256,), eps=1e-05, elementwise_affine=True)\n","            (attn): AttentionCl(\n","              (qkv): Linear(in_features=256, out_features=768, bias=True)\n","              (rel_pos): RelPosBiasTf()\n","              (attn_drop): Dropout(p=0.0, inplace=False)\n","              (proj): Linear(in_features=256, out_features=256, bias=True)\n","              (proj_drop): Dropout(p=0.0, inplace=False)\n","            )\n","            (ls1): Identity()\n","            (drop_path1): Identity()\n","            (norm2): LayerNorm((256,), eps=1e-05, elementwise_affine=True)\n","            (mlp): Mlp(\n","              (fc1): Linear(in_features=256, out_features=1024, bias=True)\n","              (act): GELUTanh()\n","              (drop1): Dropout(p=0.0, inplace=False)\n","              (norm): Identity()\n","              (fc2): Linear(in_features=1024, out_features=256, bias=True)\n","              (drop2): Dropout(p=0.0, inplace=False)\n","            )\n","            (ls2): Identity()\n","            (drop_path2): Identity()\n","          )\n","          (attn_grid): PartitionAttentionCl(\n","            (norm1): LayerNorm((256,), eps=1e-05, elementwise_affine=True)\n","            (attn): AttentionCl(\n","              (qkv): Linear(in_features=256, out_features=768, bias=True)\n","              (rel_pos): RelPosBiasTf()\n","              (attn_drop): Dropout(p=0.0, inplace=False)\n","              (proj): Linear(in_features=256, out_features=256, bias=True)\n","              (proj_drop): Dropout(p=0.0, inplace=False)\n","            )\n","            (ls1): Identity()\n","            (drop_path1): Identity()\n","            (norm2): LayerNorm((256,), eps=1e-05, elementwise_affine=True)\n","            (mlp): Mlp(\n","              (fc1): Linear(in_features=256, out_features=1024, bias=True)\n","              (act): GELUTanh()\n","              (drop1): Dropout(p=0.0, inplace=False)\n","              (norm): Identity()\n","              (fc2): Linear(in_features=1024, out_features=256, bias=True)\n","              (drop2): Dropout(p=0.0, inplace=False)\n","            )\n","            (ls2): Identity()\n","            (drop_path2): Identity()\n","          )\n","        )\n","        (3): MaxxVitBlock(\n","          (conv): MbConvBlock(\n","            (shortcut): Identity()\n","            (pre_norm): BatchNormAct2d(\n","              256, eps=0.001, momentum=0.1, affine=True, track_running_stats=True\n","              (drop): Identity()\n","              (act): Identity()\n","            )\n","            (down): Identity()\n","            (conv1_1x1): Conv2d(256, 1024, kernel_size=(1, 1), stride=(1, 1), bias=False)\n","            (norm1): BatchNormAct2d(\n","              1024, eps=0.001, momentum=0.1, affine=True, track_running_stats=True\n","              (drop): Identity()\n","              (act): GELUTanh()\n","            )\n","            (conv2_kxk): Conv2d(1024, 1024, kernel_size=(3, 3), stride=(1, 1), padding=(1, 1), groups=1024, bias=False)\n","            (norm2): BatchNormAct2d(\n","              1024, eps=0.001, momentum=0.1, affine=True, track_running_stats=True\n","              (drop): Identity()\n","              (act): GELUTanh()\n","            )\n","            (se): SEModule(\n","              (fc1): Conv2d(1024, 64, kernel_size=(1, 1), stride=(1, 1))\n","              (bn): Identity()\n","              (act): SiLU(inplace=True)\n","              (fc2): Conv2d(64, 1024, kernel_size=(1, 1), stride=(1, 1))\n","              (gate): Sigmoid()\n","            )\n","            (conv3_1x1): Conv2d(1024, 256, kernel_size=(1, 1), stride=(1, 1))\n","            (drop_path): Identity()\n","          )\n","          (attn_block): PartitionAttentionCl(\n","            (norm1): LayerNorm((256,), eps=1e-05, elementwise_affine=True)\n","            (attn): AttentionCl(\n","              (qkv): Linear(in_features=256, out_features=768, bias=True)\n","              (rel_pos): RelPosBiasTf()\n","              (attn_drop): Dropout(p=0.0, inplace=False)\n","              (proj): Linear(in_features=256, out_features=256, bias=True)\n","              (proj_drop): Dropout(p=0.0, inplace=False)\n","            )\n","            (ls1): Identity()\n","            (drop_path1): Identity()\n","            (norm2): LayerNorm((256,), eps=1e-05, elementwise_affine=True)\n","            (mlp): Mlp(\n","              (fc1): Linear(in_features=256, out_features=1024, bias=True)\n","              (act): GELUTanh()\n","              (drop1): Dropout(p=0.0, inplace=False)\n","              (norm): Identity()\n","              (fc2): Linear(in_features=1024, out_features=256, bias=True)\n","              (drop2): Dropout(p=0.0, inplace=False)\n","            )\n","            (ls2): Identity()\n","            (drop_path2): Identity()\n","          )\n","          (attn_grid): PartitionAttentionCl(\n","            (norm1): LayerNorm((256,), eps=1e-05, elementwise_affine=True)\n","            (attn): AttentionCl(\n","              (qkv): Linear(in_features=256, out_features=768, bias=True)\n","              (rel_pos): RelPosBiasTf()\n","              (attn_drop): Dropout(p=0.0, inplace=False)\n","              (proj): Linear(in_features=256, out_features=256, bias=True)\n","              (proj_drop): Dropout(p=0.0, inplace=False)\n","            )\n","            (ls1): Identity()\n","            (drop_path1): Identity()\n","            (norm2): LayerNorm((256,), eps=1e-05, elementwise_affine=True)\n","            (mlp): Mlp(\n","              (fc1): Linear(in_features=256, out_features=1024, bias=True)\n","              (act): GELUTanh()\n","              (drop1): Dropout(p=0.0, inplace=False)\n","              (norm): Identity()\n","              (fc2): Linear(in_features=1024, out_features=256, bias=True)\n","              (drop2): Dropout(p=0.0, inplace=False)\n","            )\n","            (ls2): Identity()\n","            (drop_path2): Identity()\n","          )\n","        )\n","        (4): MaxxVitBlock(\n","          (conv): MbConvBlock(\n","            (shortcut): Identity()\n","            (pre_norm): BatchNormAct2d(\n","              256, eps=0.001, momentum=0.1, affine=True, track_running_stats=True\n","              (drop): Identity()\n","              (act): Identity()\n","            )\n","            (down): Identity()\n","            (conv1_1x1): Conv2d(256, 1024, kernel_size=(1, 1), stride=(1, 1), bias=False)\n","            (norm1): BatchNormAct2d(\n","              1024, eps=0.001, momentum=0.1, affine=True, track_running_stats=True\n","              (drop): Identity()\n","              (act): GELUTanh()\n","            )\n","            (conv2_kxk): Conv2d(1024, 1024, kernel_size=(3, 3), stride=(1, 1), padding=(1, 1), groups=1024, bias=False)\n","            (norm2): BatchNormAct2d(\n","              1024, eps=0.001, momentum=0.1, affine=True, track_running_stats=True\n","              (drop): Identity()\n","              (act): GELUTanh()\n","            )\n","            (se): SEModule(\n","              (fc1): Conv2d(1024, 64, kernel_size=(1, 1), stride=(1, 1))\n","              (bn): Identity()\n","              (act): SiLU(inplace=True)\n","              (fc2): Conv2d(64, 1024, kernel_size=(1, 1), stride=(1, 1))\n","              (gate): Sigmoid()\n","            )\n","            (conv3_1x1): Conv2d(1024, 256, kernel_size=(1, 1), stride=(1, 1))\n","            (drop_path): Identity()\n","          )\n","          (attn_block): PartitionAttentionCl(\n","            (norm1): LayerNorm((256,), eps=1e-05, elementwise_affine=True)\n","            (attn): AttentionCl(\n","              (qkv): Linear(in_features=256, out_features=768, bias=True)\n","              (rel_pos): RelPosBiasTf()\n","              (attn_drop): Dropout(p=0.0, inplace=False)\n","              (proj): Linear(in_features=256, out_features=256, bias=True)\n","              (proj_drop): Dropout(p=0.0, inplace=False)\n","            )\n","            (ls1): Identity()\n","            (drop_path1): Identity()\n","            (norm2): LayerNorm((256,), eps=1e-05, elementwise_affine=True)\n","            (mlp): Mlp(\n","              (fc1): Linear(in_features=256, out_features=1024, bias=True)\n","              (act): GELUTanh()\n","              (drop1): Dropout(p=0.0, inplace=False)\n","              (norm): Identity()\n","              (fc2): Linear(in_features=1024, out_features=256, bias=True)\n","              (drop2): Dropout(p=0.0, inplace=False)\n","            )\n","            (ls2): Identity()\n","            (drop_path2): Identity()\n","          )\n","          (attn_grid): PartitionAttentionCl(\n","            (norm1): LayerNorm((256,), eps=1e-05, elementwise_affine=True)\n","            (attn): AttentionCl(\n","              (qkv): Linear(in_features=256, out_features=768, bias=True)\n","              (rel_pos): RelPosBiasTf()\n","              (attn_drop): Dropout(p=0.0, inplace=False)\n","              (proj): Linear(in_features=256, out_features=256, bias=True)\n","              (proj_drop): Dropout(p=0.0, inplace=False)\n","            )\n","            (ls1): Identity()\n","            (drop_path1): Identity()\n","            (norm2): LayerNorm((256,), eps=1e-05, elementwise_affine=True)\n","            (mlp): Mlp(\n","              (fc1): Linear(in_features=256, out_features=1024, bias=True)\n","              (act): GELUTanh()\n","              (drop1): Dropout(p=0.0, inplace=False)\n","              (norm): Identity()\n","              (fc2): Linear(in_features=1024, out_features=256, bias=True)\n","              (drop2): Dropout(p=0.0, inplace=False)\n","            )\n","            (ls2): Identity()\n","            (drop_path2): Identity()\n","          )\n","        )\n","      )\n","    )\n","    (3): MaxxVitStage(\n","      (blocks): Sequential(\n","        (0): MaxxVitBlock(\n","          (conv): MbConvBlock(\n","            (shortcut): Downsample2d(\n","              (pool): AvgPool2dSame(kernel_size=(2, 2), stride=(2, 2), padding=(0, 0))\n","              (expand): Conv2d(256, 512, kernel_size=(1, 1), stride=(1, 1))\n","            )\n","            (pre_norm): BatchNormAct2d(\n","              256, eps=0.001, momentum=0.1, affine=True, track_running_stats=True\n","              (drop): Identity()\n","              (act): Identity()\n","            )\n","            (down): Identity()\n","            (conv1_1x1): Conv2d(256, 2048, kernel_size=(1, 1), stride=(1, 1), bias=False)\n","            (norm1): BatchNormAct2d(\n","              2048, eps=0.001, momentum=0.1, affine=True, track_running_stats=True\n","              (drop): Identity()\n","              (act): GELUTanh()\n","            )\n","            (conv2_kxk): Conv2dSame(2048, 2048, kernel_size=(3, 3), stride=(2, 2), groups=2048, bias=False)\n","            (norm2): BatchNormAct2d(\n","              2048, eps=0.001, momentum=0.1, affine=True, track_running_stats=True\n","              (drop): Identity()\n","              (act): GELUTanh()\n","            )\n","            (se): SEModule(\n","              (fc1): Conv2d(2048, 128, kernel_size=(1, 1), stride=(1, 1))\n","              (bn): Identity()\n","              (act): SiLU(inplace=True)\n","              (fc2): Conv2d(128, 2048, kernel_size=(1, 1), stride=(1, 1))\n","              (gate): Sigmoid()\n","            )\n","            (conv3_1x1): Conv2d(2048, 512, kernel_size=(1, 1), stride=(1, 1))\n","            (drop_path): Identity()\n","          )\n","          (attn_block): PartitionAttentionCl(\n","            (norm1): LayerNorm((512,), eps=1e-05, elementwise_affine=True)\n","            (attn): AttentionCl(\n","              (qkv): Linear(in_features=512, out_features=1536, bias=True)\n","              (rel_pos): RelPosBiasTf()\n","              (attn_drop): Dropout(p=0.0, inplace=False)\n","              (proj): Linear(in_features=512, out_features=512, bias=True)\n","              (proj_drop): Dropout(p=0.0, inplace=False)\n","            )\n","            (ls1): Identity()\n","            (drop_path1): Identity()\n","            (norm2): LayerNorm((512,), eps=1e-05, elementwise_affine=True)\n","            (mlp): Mlp(\n","              (fc1): Linear(in_features=512, out_features=2048, bias=True)\n","              (act): GELUTanh()\n","              (drop1): Dropout(p=0.0, inplace=False)\n","              (norm): Identity()\n","              (fc2): Linear(in_features=2048, out_features=512, bias=True)\n","              (drop2): Dropout(p=0.0, inplace=False)\n","            )\n","            (ls2): Identity()\n","            (drop_path2): Identity()\n","          )\n","          (attn_grid): PartitionAttentionCl(\n","            (norm1): LayerNorm((512,), eps=1e-05, elementwise_affine=True)\n","            (attn): AttentionCl(\n","              (qkv): Linear(in_features=512, out_features=1536, bias=True)\n","              (rel_pos): RelPosBiasTf()\n","              (attn_drop): Dropout(p=0.0, inplace=False)\n","              (proj): Linear(in_features=512, out_features=512, bias=True)\n","              (proj_drop): Dropout(p=0.0, inplace=False)\n","            )\n","            (ls1): Identity()\n","            (drop_path1): Identity()\n","            (norm2): LayerNorm((512,), eps=1e-05, elementwise_affine=True)\n","            (mlp): Mlp(\n","              (fc1): Linear(in_features=512, out_features=2048, bias=True)\n","              (act): GELUTanh()\n","              (drop1): Dropout(p=0.0, inplace=False)\n","              (norm): Identity()\n","              (fc2): Linear(in_features=2048, out_features=512, bias=True)\n","              (drop2): Dropout(p=0.0, inplace=False)\n","            )\n","            (ls2): Identity()\n","            (drop_path2): Identity()\n","          )\n","        )\n","        (1): MaxxVitBlock(\n","          (conv): MbConvBlock(\n","            (shortcut): Identity()\n","            (pre_norm): BatchNormAct2d(\n","              512, eps=0.001, momentum=0.1, affine=True, track_running_stats=True\n","              (drop): Identity()\n","              (act): Identity()\n","            )\n","            (down): Identity()\n","            (conv1_1x1): Conv2d(512, 2048, kernel_size=(1, 1), stride=(1, 1), bias=False)\n","            (norm1): BatchNormAct2d(\n","              2048, eps=0.001, momentum=0.1, affine=True, track_running_stats=True\n","              (drop): Identity()\n","              (act): GELUTanh()\n","            )\n","            (conv2_kxk): Conv2d(2048, 2048, kernel_size=(3, 3), stride=(1, 1), padding=(1, 1), groups=2048, bias=False)\n","            (norm2): BatchNormAct2d(\n","              2048, eps=0.001, momentum=0.1, affine=True, track_running_stats=True\n","              (drop): Identity()\n","              (act): GELUTanh()\n","            )\n","            (se): SEModule(\n","              (fc1): Conv2d(2048, 128, kernel_size=(1, 1), stride=(1, 1))\n","              (bn): Identity()\n","              (act): SiLU(inplace=True)\n","              (fc2): Conv2d(128, 2048, kernel_size=(1, 1), stride=(1, 1))\n","              (gate): Sigmoid()\n","            )\n","            (conv3_1x1): Conv2d(2048, 512, kernel_size=(1, 1), stride=(1, 1))\n","            (drop_path): Identity()\n","          )\n","          (attn_block): PartitionAttentionCl(\n","            (norm1): LayerNorm((512,), eps=1e-05, elementwise_affine=True)\n","            (attn): AttentionCl(\n","              (qkv): Linear(in_features=512, out_features=1536, bias=True)\n","              (rel_pos): RelPosBiasTf()\n","              (attn_drop): Dropout(p=0.0, inplace=False)\n","              (proj): Linear(in_features=512, out_features=512, bias=True)\n","              (proj_drop): Dropout(p=0.0, inplace=False)\n","            )\n","            (ls1): Identity()\n","            (drop_path1): Identity()\n","            (norm2): LayerNorm((512,), eps=1e-05, elementwise_affine=True)\n","            (mlp): Mlp(\n","              (fc1): Linear(in_features=512, out_features=2048, bias=True)\n","              (act): GELUTanh()\n","              (drop1): Dropout(p=0.0, inplace=False)\n","              (norm): Identity()\n","              (fc2): Linear(in_features=2048, out_features=512, bias=True)\n","              (drop2): Dropout(p=0.0, inplace=False)\n","            )\n","            (ls2): Identity()\n","            (drop_path2): Identity()\n","          )\n","          (attn_grid): PartitionAttentionCl(\n","            (norm1): LayerNorm((512,), eps=1e-05, elementwise_affine=True)\n","            (attn): AttentionCl(\n","              (qkv): Linear(in_features=512, out_features=1536, bias=True)\n","              (rel_pos): RelPosBiasTf()\n","              (attn_drop): Dropout(p=0.0, inplace=False)\n","              (proj): Linear(in_features=512, out_features=512, bias=True)\n","              (proj_drop): Dropout(p=0.0, inplace=False)\n","            )\n","            (ls1): Identity()\n","            (drop_path1): Identity()\n","            (norm2): LayerNorm((512,), eps=1e-05, elementwise_affine=True)\n","            (mlp): Mlp(\n","              (fc1): Linear(in_features=512, out_features=2048, bias=True)\n","              (act): GELUTanh()\n","              (drop1): Dropout(p=0.0, inplace=False)\n","              (norm): Identity()\n","              (fc2): Linear(in_features=2048, out_features=512, bias=True)\n","              (drop2): Dropout(p=0.0, inplace=False)\n","            )\n","            (ls2): Identity()\n","            (drop_path2): Identity()\n","          )\n","        )\n","      )\n","    )\n","  )\n","  (norm): Identity()\n","  (head): NormMlpClassifierHead(\n","    (global_pool): SelectAdaptivePool2d(pool_type=avg, flatten=Identity())\n","    (norm): LayerNorm2d((512,), eps=1e-05, elementwise_affine=True)\n","    (flatten): Flatten(start_dim=1, end_dim=-1)\n","    (pre_logits): Sequential(\n","      (fc): Linear(in_features=512, out_features=512, bias=True)\n","      (act): Tanh()\n","    )\n","    (drop): Dropout(p=0.0, inplace=False)\n","    (fc): Linear(in_features=512, out_features=3, bias=True)\n","  )\n",")"]},"metadata":{},"execution_count":14}],"source":["import timm\n","import torch\n","from torch import nn, optim\n","\n","# --- Device Setup ---\n","device = torch.device(\"cuda\" if torch.cuda.is_available() else \"cpu\")\n","print(\"Using device:\", device)\n","\n","# --- Model Definition ---\n","model = timm.create_model(\n","    \"maxvit
…
